code/model/test/last.pth (torch, 400759 bytes, 8 tensors)

conv1.weight f4 [32, 3, 7, 7]
000000 3e 0f 90 3d bd 99 5d 3d 73 22 3f bd 70 b6 f3 bc
       0.07034157 0.054101694 -0.046663713 -0.029750079
000010 8a a9 fc bb ea 53 95 bb ca 79 80 bd 15 9c b3 bc
       -0.0077106403 -0.0045571225 -0.062732294 -0.021925012
000020 d1 46 80 3d 2f 6c a3 bd dd 1c 45 3c aa 05 8a 3c
       0.06263507 -0.07979619 0.012030807 0.016848404
000030 a7 a1 d6 bc 6d a9 e4 bc 49 c9 28 bd 7a 47 99 bd
       -0.026200129 -0.02791282 -0.041207585 -0.07484336
000040 d6 17 98 bd ba 21 34 3d 21 a2 19 bb 85 81 62 bb
       -0.07426421 0.043977477 -0.0023442584 -0.0034562063
000050 67 6d 5b bc ff 90 9f bd e5 65 5b bc 9e a1 9b bd
       -0.013392783 -0.07791328 -0.013390993 -0.075991854
000060 62 d5 26 3d 01 43 ec bc 31 b4 e4 bc b1 ec ee 3c
       0.04073084 -0.028840544 -0.027917953 0.029165598
000070 78 3b 67 bd f1 8f 5b bd a4 3b 3b bd 75 b8 97 bc
       -0.0564532 -0.05360407 -0.045711175 -0.018520573
000080 0a 16 55 bd 66 1a a8 bd 26 70 17 3d 8c ec 37 3d
       -0.05202297 -0.0820816 0.036972187 0.044903323
000090 fa 2a 0b bd 12 c2 81 bd c6 f0 64 3d 39 d7 4c bd
       -0.033976533 -0.06335844 0.055893682 -0.05000994
0000a0 e2 d8 82 bd b7 32 98 bd a4 b8 a7 3c fa 9e 99 3c
       -0.06389023 -0.07431548 0.020473786 0.018752564
0000b0 8b e4 a0 3d 7e 95 04 bd 1e da 52 bd a4 18 a5 3d
       0.07856091 -0.03236913 -0.051477544 0.080613405
0000c0 ec 61 68 3d 89 6f 95 bd db 1c 9e bd 51 c8 fb 3c
       0.05673401 -0.07296664 -0.077203475 0.030735167
0000d0 e3 37 28 bd 54 92 6b 3c 11 44 b1 bb bd 14 d2 bc
       -0.041068923 0.014378149 -0.0054097255 -0.025644654
0000e0 46 3f 90 3d e3 c7 dd 3c 94 74 cb 3c 06 81 7d bd
       0.070433185 0.027072852 0.024835862 -0.061890624
0000f0 20 16 ed bc f5 ed 1d 3d a0 b7 39 3d f7 b8 0f 3c
       -0.028941214 0.03855701 0.045341134 0.008772126
000100 67 76 a5 bd dd cd 35 bd ef 6c a6 3d 52 24 89 3d
       -0.08079224 -0.04438578 0.08126246 0.06696381
000110 3c e6 31 3d 4b 2e 45 bd 91 56 36 bd ce fc f3 3c
       0.04343246 -0.04813985 -0.04451615 0.029783633
000120 6e 84 8d bd c8 2f 1e bc b3 4e 01 3d a3 1b 05 3d
       -0.069100246 -0.009654947 0.031569194 0.03249706
000130 74 2a 26 3d a9 99 a0 3b 87 84 62 3d 35 45 a5 bd
       0.04056783 0.00490113 0.05530217 -0.08069841
000140 cf 71 2e bd 56 83 d0 bc e0 60 45 3d 60 e0 83 bd
       -0.042589005 -0.02545325 0.04818809 -0.064392805
000150 fd f2 78 3d 6d dd 43 bd ce 76 cc bc ef cf 79 3d
       0.060778607 -0.04781859 -0.024958994 0.060989317
000160 cf 41 a5 3d 28 3d ca 3c fa a2 90 bc e9 c2 6e 3d
       0.080691926 0.024687365 -0.017655838 0.05829135
000170 b4 64 84 bb 6e 65 4b 3d c6 9b 08 3d bf cd f2 ba
       -0.004040325 0.049657278 0.033351682 -0.0018524452
000180 36 45 9f 3d 98 a6 22 3d 97 8c 9e 3d d7 76 9f 3d
       0.07776873 0.039709657 0.07741659 0.07786339
000190 a3 65 82 3c a2 3e 1e bd a0 8e e3 bc 6f cc 57 bc
       0.015917605 -0.03863395 -0.02777797 -0.013171299
0001a0 85 ce dc bc 62 a1 0c 3c 9b 23 a4 3d 56 57 5e 3d
       -0.026953945 0.008583399 0.08014604 0.05428251
0001b0 09 9b b8 3c ab 63 2f 3d 52 e4 3e bd 37 a3 07 3d
       0.022534864 0.04281966 -0.046604462 0.03311464
0001c0 a8 d8 93 3d b4 ea d9 3c 65 72 9c 3a 99 47 88 3d
       0.07219058 0.026601173 0.0011935948 0.06654281
0001d0 38 ff 8a bd fc 82 3e 3d e1 1c 83 bc 1e d5 9b bd
       -0.0678696 0.046511635 -0.016004981 -0.07609008
0001e0 67 fc 3c 3d 33 f2 87 bc f5 62 98 bc 79 b2 1a bd
       0.046139147 -0.016594982 -0.018601874 -0.03776786
0001f0 d2 8d df bc 4a 64 50 bc 9a 01 a6 bd a2 e5 23 3d
       -0.027289305 -0.012719223 -0.08105774 0.040013917
000200 ab c6 2c 3c 5f 35 fa 3c 1a e7 a7 3d 88 61 97 bc
       0.010545413 0.030543027 0.08198376 -0.018479124
000210 8e f6 4a bd 2e b3 5b bd 30 c1 3b bc 16 4a 84 bc
       -0.04955154 -0.053637676 -0.011459634 -0.016148608
000220 10 db ef 3c d7 57 bd 3b e9 56 e0 3c 5a 76 2c bd
       0.029279262 0.0057782936 0.027385192 -0.042105056
000230 3c a0 91 bd 7a 28 43 3b 70 26 8e 3c 19 fc 21 bd
       -0.071106404 0.0029778765 0.017352313 -0.03954706
000240 45 ef f1 bc 04 f2 6f bc 4d 36 97 bd 06 21 9d 3d
       -0.029533038 -0.014645103 -0.07383404 0.07672314
000250 18 2f 72 3d 46 11 78 bd b4 a5 a1 bd 12 6e 92 3d
       0.059126943 -0.06056335 -0.078929335 0.071499005
000260 68 9d 8b 3d 78 51 98 bd bb 18 8d 3c b4 cd 57 bd
       0.06817132 -0.07437414 0.017223706 -0.05268641
000270 a5 27 7a bd 5f 7e 6c bd 1a 40 13 3b fe 50 9b 3d
       -0.061072964 -0.057737704 0.0022468627 0.075838074
000280 83 32 1c 3d 92 95 9c bd 41 c7 34 3d bf 88 98 3d
       0.03813411 -0.07645716 0.044135336 0.07447957
000290 4b e6 6c 3d 67 4f 9b 3d 76 db 45 bd d5 30 2d bd
       0.057836812 0.07583504 -0.048304997 -0.042282898
0002a0 63 39 3a 3d ba d8 85 bd f0 47 c2 bc 6b f3 70 3d
       0.045464884 -0.06535478 -0.023715943 0.05882589
0002b0 3a 7d cc 3c 5d b5 b7 bc 5d c8 05 3d fc 7d 1f bd
       0.024962056 -0.022425348 0.032661784 -0.038938507
0002c0 f8 cb 2c bd 11 6e c7 3c 6b b1 24 bd 66 53 69 3d
       -0.042186707 0.024344476 -0.04020826 0.0569643
0002d0 9b f4 14 3d 0d b6 4b 3d b5 11 71 3d 13 54 24 3c
       0.036366086 0.049734164 0.058854777 0.0100298105
0002e0 92 af fc bc 7d c1 8e bd 0a 85 c7 bc f4 f4 8e bd
       -0.030845437 -0.06970499 -0.02435543 -0.06980315
0002f0 95 d1 4b 3d 78 0f c7 3b 2a 03 11 bd d9 61 41 bb
       0.04976042 0.006074842 -0.035403408 -0.0029507785
000300 77 0b 72 3d f3 e9 15 bd 3e 38 7d 3c 8b 8f 1c 3c
       0.059092965 -0.036600064 0.015455304 0.009555708
000310 0a 5e 3c bc a9 0c a0 bc ea 8d f9 3c eb 96 dd bc
       -0.01149703 -0.019537287 0.030463178 -0.027049502
000320 a7 89 8b bd 1a 2f 95 3c e7 29 46 bd f1 8f 2e bd
       -0.068133645 0.018210936 -0.048379805 -0.042617742
000330 42 46 fd 3a 0a a1 20 3d 9c e0 c7 bc 2f bb 4c bd
       0.0019323307 0.03921608 -0.024399094 -0.0499832
000340 46 49 1a 3d 31 68 52 bd 15 9c 8e 3c 36 b9 bc 3c
       0.037667535 -0.051368896 0.01740841 0.023037534
000350 96 34 1f bb 35 8a b1 bc c3 b5 3d bc 36 10 41 bd
       -0.0024292818 -0.021672348 -0.01157898 -0.0471346
000360 9a 61 5c 3d 5e 48 00 bc f6 3d 0f bd 04 29 3b bd
       0.053804018 -0.007829754 -0.0349712 -0.045693412
000370 e5 40 13 3d 54 85 52 bd ad 7c 09 3d 1a e8 4b b9
       0.03595056 -0.051396683 0.033566166 -0.00019446053
000380 98 f8 9c bd 09 bf 55 3d ea f1 02 3d ff 6a 0c 3d
       -0.07664603 0.05218414 0.03196899 0.034281727
000390 0b cd 19 bd 3c fc 93 bd c5 3b 1d 3d 82 92 84 bd
       -0.03754906 -0.07225844 0.03838708 -0.06473257
0003a0 84 2d 1e 3d 0a 3d 91 3d 9d 15 31 bc 4e 1e 8a bd
       0.038617626 0.070917204 -0.010808376 -0.067440614
0003b0 0a 03 7b 3d 79 d7 a2 bd 9a 9b e3 bc cb 9e 7c bd
       0.061282195 -0.079512544 -0.027784158 -0.061674874
0003c0 d3 27 0d 3d 7d 8b 97 3d d3 8f 5a bd 14 54 44 bd
       0.034461807 0.07399652 -0.053359818 -0.047931746
0003d0 b4 e9 87 3d 9e 77 24 3d 9a eb 6a 3d 83 ea 73 bd
       0.06636372 0.04015314 0.057353593 -0.05954982
0003e0 fb f5 9c 3d 14 c6 f8 bc c1 71 3c bd 90 4f e5 bc
       0.076641046 -0.030367889 -0.04600692 -0.02799204
0003f0 45 fc a2 3b e1 90 43 3d 80 9c b0 bc 1b 1c 66 bd
       0.0049739205 0.04774559 -0.021559 -0.056179147

conv1.bias f4 [32]
000000 48 55 80 bd fe 52 96 3c 2f 7c 4d 3d fe 19 21 bd
       -0.06266266 0.01835012 0.05016726 -0.03933143
000010 25 0b db bc be 06 e3 3c 56 a3 9c 3d e0 8b 8b bc
       -0.026738713 0.027713176 0.07648341 -0.017034471
000020 1f ac a2 bd 80 bb 6b 3d 47 d4 94 bd 41 69 2d bd
       -0.07942986 0.05755186 -0.07267051 -0.042336706
000030 c0 63 6a bd 25 c7 1c 3d 1f 83 4b 3d 3a 7f 9e 3d
       -0.057224035 0.038275857 0.049685594 0.0773911
000040 92 c9 00 3c b9 6f 66 bd 72 cb 74 3d 41 84 7f 3d
       0.007860558 -0.05625889 0.059764333 0.062381987
000050 e1 c7 d0 3c 70 67 cc 3c 60 d4 7a bd 94 3d 91 bc
       0.025485935 0.024951667 -0.061237693 -0.017729558
000060 63 1c 9f 3d b9 16 72 3c 4f fb a2 bd 4a 33 a5 3d
       0.07769086 0.014775925 -0.079580896 0.08066423
000070 0c 24 5d 3d b6 ae 70 3d f5 cf 3e 3d bc b5 1f 3d
       0.053989455 0.058760367 0.046585042 0.038991675

conv2.weight f4 [64, 32, 3, 3]
000000 6f 99 61 3d 7c ea bc 3c f9 43 5f bd bf 58 f5 bc
       0.055077966 0.02306103 -0.054508183 -0.029949544
000010 97 db 9a 3c 9b 99 51 bd 34 b1 33 bd 74 e1 36 bd
       0.018903537 -0.05117188 -0.043870166 -0.044648603
000020 bf 4f 1b bd f1 3e c8 3c 40 12 23 3d 83 b6 07 bd
       -0.03791785 0.024444075 0.039812326 -0.03313304
000030 23 26 ed bc 8d 4e 59 bc 75 b3 a8 bc 27 ba 82 bc
       -0.028948849 -0.013263357 -0.020593384 -0.015957905
000040 86 77 e3 bb 8d f7 61 3d 81 3c 6b bd 5c 8a 4a 3c
       -0.0069417385 0.055167723 -0.057430748 0.012362089
000050 36 88 c4 bc 1d 59 1d bd 35 65 82 3c 23 6a 0c 3d
       -0.023990732 -0.038415063 0.0159174 0.034280907
000060 c5 a8 58 3d 4d 56 fc bc d5 2d 91 bb f6 aa 3b bd
       0.052895326 -0.03080287 -0.0044305124 -0.045817338
000070 3c 36 05 bd e2 d0 bb 3b bc 94 01 3d 67 c7 3e bc
       -0.032522425 0.005731688 0.031635985 -0.011644221
000080 e0 14 15 3d fe 62 54 38 56 2c 82 bc 07 83 63 3c
       0.03639686 5.0636932e-05 -0.015890282 0.01388622
000090 64 64 44 3d 07 28 c6 3c be eb b4 bc 37 df dd bc
       0.047947302 0.024189008 -0.022085067 -0.027083976
0000a0 8c a7 65 3d d2 93 3d 3d 6b 97 28 3d e4 48 10 bd
       0.05606799 0.04628355 0.04116003 -0.035225764
0000b0 3b 2d 6b bd 8f 1f 2a bd 7e 7e ad 3c 9e e0 65 3d
       -0.057416182 -0.041534003 0.02117848 0.056122415
0000c0 7b aa d2 bc 76 e7 6e bd d7 4c 1f bd fc 2a b8 3c
       -0.025716057 -0.058326207 -0.03889164 0.022481434
0000d0 3c 2d 28 3d 12 a7 3a bc 92 0b e4 3a a7 f8 2e bd
       0.041058764 -0.011392372 0.0017398468 -0.042717602
0000e0 13 02 dc bc 6c b3 1f bd f9 8f 1d 3d f8 8a 3c bc
       -0.026856458 -0.03898947 0.03846738 -0.011507742
0000f0 7c dc c7 bc 07 cb cd bb 8d 76 da 3c 9a b7 05 bd
       -0.024397127 -0.0062803063 0.026667858 -0.0326458
000100 2f 4d 08 bc 06 15 cd 3c 78 ac e3 bb e1 96 9c 3c
       -0.008319183 0.025034439 -0.00694805 0.019114913
000110 b5 f5 21 bd 60 cf 59 bb ba ef e9 bc 3c 61 5e 3d
       -0.039540965 -0.0033235177 -0.028556693 0.05429195
000120 e7 f2 70 bd f4 b3 f2 bc c6 6c be bc 13 42 d5 3c
       -0.0588254 -0.029626824 -0.023245227 0.026032483
000130 ec 36 d7 bc a9 11 18 bd 3e ba 5e bb 23 56 9a bc
       -0.026271306 -0.037126217 -0.003398552 -0.018839901
000140 9a 81 6a 3d 31 e6 14 3d ac 30 3d 3d 06 d1 49 bd
       0.057252504 0.03635234 0.046188995 -0.049271606
000150 e2 40 77 bc da 88 38 bd 38 2c 5a 3d 36 87 0f 3d
       -0.015091153 -0.045052387 0.053264827 0.035041057
000160 ae 9b 3c bd bb 01 32 bd 5e be ee 3c 1b a4 f4 bc
       -0.046046905 -0.04345868 0.029143509 -0.029863408
000170 00 94 9a 3c b7 cb 53 bd cf 78 40 bd c6 f8 a3 bc
       0.0188694 -0.05170795 -0.046990212 -0.020016085
000180 05 9e 3c bd d8 90 14 3d 69 20 38 bd f7 4c 9d bc
       -0.046049137 0.036270946 -0.044952784 -0.019201739
000190 d7 da 6b bd 01 b1 5d 3d 6a d4 1e 3c 4a 62 12 bd
       -0.05758175 0.054123882 0.009694198 -0.035738267
0001a0 a8 8b 52 bc 6e 61 91 3c 22 a3 a4 bc fb d3 40 3d
       -0.012850679 0.017746653 -0.020097319 0.04707716
0001b0 dd 8b 5d bc 86 f5 61 3d 95 bd 03 3d f4 68 2a 3d
       -0.013522116 0.05516579 0.03216322 0.041603997
0001c0 43 7e ce 3a 21 0e 8b bc 8e ab cd 3c c4 bc 17 3d
       0.0015754182 -0.01697451 0.025106218 0.037045255
0001d0 76 5d 04 3c de 6d 43 3c 32 45 50 3d f7 3b 02 bd
       0.008078923 0.01192805 0.05084724 -0.03179547
0001e0 94 a7 4d bc ab 73 98 3b 87 c5 dc bb 5a 29 0a bd
       -0.012552161 0.0046524606 -0.0067374143 -0.033730842
0001f0 01 f4 9b 3c 90 fd 3b 3c 5a d9 11 bd e0 d5 54 bb
       0.019037249 0.011474028 -0.035607673 -0.0032476112
000200 38 97 e0 3b 56 06 c2 bb fd 56 95 3c 62 60 5d bd
       0.006853964 -0.0059211655 0.018229956 -0.054046996
000210 59 c1 03 bc df 87 32 3d 3d 44 e7 3a 24 3e df bb
       -0.008041703 0.043586608 0.0017644238 -0.0068128277
000220 4e b6 82 bc e7 5a 12 bc 59 a1 de bb ef 0d ea bc
       -0.01595607 -0.008932806 -0.0067941365 -0.028571097
000230 e6 c3 2b bd 9c ab a0 bb e4 e4 6f 3d 71 a7 36 3d
       -0.04193487 -0.00490327 0.058567896 0.04459328
000240 92 0a 3f 3b 80 84 d1 3c 27 4c 55 3c 1f 11 f7 bc
       0.0029150588 0.025575876 0.013018644 -0.030159531
000250 ae d6 ae 3c 60 22 dd 3c 1e f5 7a bb ac 3a 10 3d
       0.021342602 0.02699393 -0.0038293074 0.035212204
000260 60 b8 c0 3c 8b ba e4 bc c0 c0 8c 3c e6 70 dc 3c
       0.023525417 -0.027920982 0.017181754 0.026909303
000270 1b ae 3e 3d ec 73 24 bd 0b 7e 5e bd 13 0b bd bc
       0.04655276 -0.040149614 -0.054319423 -0.02307657
000280 68 4d a3 3b fb 52 3e bd 4c cb 6c bc bf fb 2f bd
       0.004983593 -0.046465855 -0.014452767 -0.042964693
000290 63 13 36 bd 9f 94 93 3c 57 f0 ec 3c ad ba 04 3c
       -0.044452082 0.018015204 0.028923197 0.008101148
0002a0 39 f4 27 3d 3e e9 64 bc 89 ef fe 3b ab 34 32 3d
       0.041004393 -0.013971625 0.0077800197 0.04350726
0002b0 4a 38 48 3d be e2 8a 3c 52 ca 4d bd 74 f2 6a 3c
       0.048881806 0.016953822 -0.050241776 0.014340032
0002c0 f7 4f 2e 3d 42 07 a5 3c 59 48 6d bd f7 d4 9c bc
       0.04255673 0.020145062 -0.057930324 -0.019144518
0002d0 f1 d6 f6 bc c8 12 59 bd 6f b2 48 bd d0 39 1c 3d
       -0.030131789 -0.052996427 -0.048998293 0.03814107
0002e0 23 79 1a bd e7 5e 11 bd 25 9b d1 bc 1e 38 cc bb
       -0.03771318 -0.035490897 -0.025586674 -0.0062322756
0002f0 b2 93 0f 3d da ac 6d bd 72 a4 d7 bc a0 ca 1c bc
       0.035052963 -0.058026172 -0.02632353 -0.009569794
000300 77 22 86 3c 16 ca 05 bd b3 e0 82 bc 11 9f 01 bd
       0.016373856 -0.032663427 -0.015976286 -0.03164584
000310 46 0d 58 bc 96 f0 f9 3c 81 e4 cb bc f7 5d 01 bc
       -0.013186758 0.030510228 -0.024889233 -0.007895938
000320 be fd 1d bd 75 1d 87 3c 26 d8 1a bd 77 5e 60 3c
       -0.038572066 0.016493538 -0.03780379 0.013694397
000330 ac 10 70 bd 8e e2 bc 3c 8f 29 ae 3c e0 ed 36 bd
       -0.05860965 0.023057248 0.021260051 -0.04466045
000340 5b 97 f4 bb b6 a9 10 bd c2 2d e6 bc 21 f6 df 3c
       -0.007464332 -0.0353181 -0.02809799 0.027339043
000350 80 a7 09 bd 8d 75 08 3d 55 63 f4 3c f3 94 58 3d
       -0.033607006 0.03331523 0.029832521 0.052876424
000360 89 0f b4 bc af b9 55 bd 68 96 1c 3d aa c9 61 bc
       -0.021980064 -0.052179035 0.038229376 -0.013780991
000370 f0 43 bd bc 18 e1 e3 bc 86 d7 60 3d 16 56 3b bd
       -0.023103684 -0.027817294 0.05489304 -0.045736395
000380 76 9b 53 3c 1b 0d 44 3c 60 27 ba bc 88 2b 0a 3d
       0.012915483 0.011966015 -0.022723854 0.03373292
000390 98 9e 0c 3d 81 50 23 3d 64 aa 83 3c 62 f3 81 3c
       0.034330934 0.039871696 0.01607246 0.015863124
0003a0 ac 5b 8a 3c ad 7e 98 bc 95 a1 40 bd 03 bc e9 3a
       0.016889416 -0.018615091 -0.047029097 0.0017832521
0003b0 5c 94 b4 3b dc 62 15 3d f8 e9 23 3c 26 06 e3 3a
       0.00551085 0.036471233 0.010004513 0.0017320558
0003c0 fc 51 aa bc 54 69 4a 3d 00 ca 55 3d 27 69 6d 3d
       -0.020791046 0.049416855 0.052194595 0.05796161
0003d0 bd 86 76 bb ab c6 ec bc 09 56 43 bd 92 74 6d bd
       -0.0037616931 -0.028903326 -0.04768947 -0.0579725
0003e0 0c 14 41 bd 82 39 9a bc fb 15 3c 3d 0f 60 5e bd
       -0.04713826 -0.01882625 0.0459194 -0.054290827
0003f0 90 04 8f bc 0d 8e c2 3c 84 75 e3 3c 39 f4 2e 3b
       -0.01745823 0.023749376 0.027765997 0.002669586

conv2.bias f4 [64]
000000 8c 21 70 3d 79 9b e6 3c 77 09 d0 3c d4 5b 49 3d
       0.058625743 0.028150307 0.025395138 0.04915984
000010 29 8a c3 bc 3b 2b 34 bd 91 0e 57 3d eb 5d 1b bd
       -0.02386959 -0.04398654 0.052504126 -0.037931364
000020 40 3f 63 bd ec 85 5d bc 36 ac 5d bd 04 93 15 3d
       -0.05548024 -0.013520699 -0.05411931 0.03651716
000030 9a c5 8e 3b 4c 47 6e 3d d6 0f ba bc 74 9f 47 bd
       0.004357052 0.058173463 -0.02271263 -0.04873605
000040 e5 19 f4 bc 05 5b 08 bb 48 0d 29 3d 7b b8 65 3d
       -0.029797504 -0.0020806205 0.04127243 0.056084137
000050 82 4c 4e 3d d6 6f 29 3c df 78 56 3d 07 05 d7 3b
       0.050365932 0.010341605 0.052361365 0.0065618786
000060 1d 5f 2b bd e6 fe 56 3d 02 9a c0 3c f8 67 2b 3d
       -0.041838754 0.052489184 0.023510937 0.0418472
000070 e2 fa 61 3d a8 25 48 3d 87 82 39 bd ef 87 78 3d
       0.0551709 0.048864037 -0.045290496 0.06067651
000080 bc a9 e1 bc 49 6c bd 3c b7 2b 30 bd c4 be 22 3d
       -0.027546756 0.023122923 -0.04301044 0.03973271
000090 3f 5e 7c bb b9 73 18 3d a7 48 68 3d 3e ad 0d bc
       -0.0038508323 0.037219737 0.05670991 -0.008647261
0000a0 17 28 7d 3c 69 bc 4b bc 9e 87 8e 3c 2f 95 5c bd
       0.015451453 -0.012435057 0.017398652 -0.05385321
0000b0 21 ab 38 3c 9c c5 23 3d c6 e2 3f bd e2 8a 8e bc
       0.011271269 0.039983377 -0.046847127 -0.017400209
0000c0 26 6c 11 bc 46 10 b9 3c 25 3a 17 3c 82 1a 35 3d
       -0.008875882 0.022590768 0.009230171 0.044214733
0000d0 00 64 e5 bc 8a 70 28 bd 89 98 d3 3c b0 e8 e5 bb
       -0.028001785 -0.04112295 0.02582957 -0.007016264
0000e0 12 97 bc 3c f8 13 83 bc 8f 86 25 3d 1b 6f fc bc
       0.023021255 -0.016000733 0.04041153 -0.030814698
0000f0 44 5d 42 bd 0d 75 00 bd 0a 91 ba bc d2 35 53 3b
       -0.047452226 -0.03136163 -0.022774238 0.0032228124

conv3.weight f4 [128, 64, 3, 3]
000000 46 68 5f bb ed f8 11 3d 5d bb 83 3c 3c 40 14 bd
       -0.0034089251 0.035637785 0.016080553 -0.03619407
000010 79 be 26 bd df 0b f1 3c 29 ab e3 3c 34 30 cb 3b
       -0.040708993 0.029424606 0.027791576 0.0062008146
000020 27 78 28 3c ff 1f 26 bd eb 7c 0d bd 7e f3 bc 3c
       0.010282553 -0.040557858 -0.03454296 0.023065325
000030 61 93 1e 3c 4e c8 c2 3c 9c dc a4 3c 8f ea f2 3b
       0.009678693 0.023777153 0.020124726 0.0074132155
000040 34 7b 01 3d 59 e4 83 bc 89 29 5d 3b 9c 81 2a 3d
       0.031611636 -0.016100096 0.003374668 0.04162751
000050 99 db bf 3a 2b f8 dd 3c d9 92 f6 3c 57 8d 6d 3c
       0.0014637589 0.027095875 0.03009932 0.01449903
000060 80 3a 47 3c 8b da 43 3c 11 3b 2b 3c 03 8f cf 3c
       0.012159944 0.01195396 0.010451094 0.025336748
000070 08 fb 9e 3c e1 5b ae 3c b8 54 10 bd 23 fb ba 3b
       0.01940681 0.021284046 -0.035237044 0.0057062074
000080 3e d2 98 bb 48 8c d2 bc c8 40 2c 3c a2 78 aa 3c
       -0.0046637347 -0.025701657 0.010513492 0.020809475
000090 75 ae 78 bc 88 ea 16 bc 46 b8 da bc 4a 9d ae 3b
       -0.015178313 -0.00921119 -0.026699197 0.005328809
0000a0 7d 0d c2 3c fe 95 ec ba 72 70 8b 3c bd 18 9a 3c
       0.023688072 -0.0018050072 0.017021392 0.018810624
0000b0 28 d8 97 ba 08 c4 96 bc 41 95 88 bc a7 2b fd 3b
       -0.0011584805 -0.018404022 -0.016672732 0.007726151
0000c0 e3 46 e0 3c 7b 7b e4 3c 28 d4 f2 bb 68 70 c4 3c
       0.027377551 0.027890911 -0.007410545 0.02397938
0000d0 b5 58 00 bd 0a 10 c4 bc 6b a3 1e bd 97 e7 c3 bc
       -0.031334598 -0.02393343 -0.038730066 -0.023914142
0000e0 f8 af e1 3c 03 d6 3a bc f3 f7 c4 bb 4d 96 a0 3b
       0.027549729 -0.011403563 -0.006011003 0.0049007297
0000f0 c2 93 89 bb fc 3e 73 bc 20 8d 8c 3c 98 21 9a 3c
       -0.0041985223 -0.01484656 0.017157137 0.018814847
000100 3b 95 ed 3b d6 d8 cf bb 20 11 de bc a9 45 8c bc
       0.0072504557 -0.0063429875 -0.027107775 -0.01712306
000110 d9 f4 61 bb 3e 37 d3 3c 39 fd ab 3c 88 50 20 3d
       -0.0034478216 0.025783177 0.02099477 0.0391393
000120 37 c6 c9 3c 05 9c e6 bc 83 2a c5 bc 32 a8 4f bb
       0.024630649 -0.028150568 -0.024068123 -0.0031685946
000130 aa 9d 4d bc 5b 01 0b 3d e0 47 c7 bc b6 02 e5 3b
       -0.012549797 0.03393684 -0.024326265 0.0069888486
000140 71 79 97 3b 49 52 06 3d d7 28 7a 3b 50 15 54 3b
       0.0046226312 0.032793317 0.0038171315 0.0032361336
000150 f9 91 15 3c 69 ba c5 bb 0f fd 25 3c c2 94 23 bd
       0.009129041 -0.0060341847 0.010131135 -0.03993679
000160 fc cc 4e 3c ee f2 4a 3c f0 2e 24 bd 65 51 27 3d
       0.012622114 0.0123870205 -0.040083826 0.04084911
000170 97 9d 68 3c 57 fa 99 3a d5 cf e9 bb e2 e1 f1 3c
       0.014197729 0.0011747581 -0.007135371 0.029526655
000180 ef 38 9c 3c 82 f7 4d 3c db d5 03 3d 30 12 b2 3b
       0.019070117 0.0125712175 0.03218637 0.005434297
000190 c1 ba 57 bc a1 7a a2 bc fc d7 f6 3b 27 90 0b bc
       -0.013167084 -0.019833865 0.0075330716 -0.008518255
0001a0 f9 11 ed bc 73 15 f9 bc cb 08 ba bc d8 05 e1 bc
       -0.028939234 -0.030405736 -0.022709271 -0.027468607
0001b0 93 d2 6c 3b 67 c8 a6 bc db 9d f4 bb ef b6 26 3d
       0.0036136254 -0.020359231 -0.007465107 0.040701803
0001c0 f7 68 a6 bc e2 6b 48 3c 72 78 a5 bc b8 91 ee bc
       -0.020313723 0.0122327525 -0.020199034 -0.029122218
0001d0 57 8d 21 3d 19 70 02 bd bb a8 a2 ba 7b 77 8e 3c
       0.039441433 -0.031845186 -0.0012409905 0.017390957
0001e0 b2 df 8a 3c 47 d4 68 3c 3d 11 e2 3c 3d 28 00 bd
       0.01695237 0.014210767 0.02759611 -0.031288374
0001f0 46 89 f8 bc d9 4f 79 bc a6 14 fb 3c bf 3d 1e bd
       -0.030338895 -0.015216791 0.030649494 -0.038633104
000200 de 20 13 bd e3 17 c3 3c 00 64 26 bd 28 4e c3 3a
       -0.035920016 0.023815101 -0.04062271 0.0014900612
000210 d8 38 ec bc c0 d0 9e 3c 38 3a 28 bd c6 be e0 3c
       -0.028835699 0.01938665 -0.041071147 0.027434718
000220 5c 2e 92 bc d9 e8 52 3c 96 e2 1a 3d 6a e8 0f bd
       -0.017844371 0.012872898 0.037813745 -0.035133757
000230 1a 40 15 3d 9a 4a 01 3d c7 49 17 3d ac 42 2b 3a
       0.036438085 0.031565286 0.036935594 0.0006533067
000240 b1 2f 2c bc ac 58 12 bd 6b 58 9b bb 78 12 a8 bc
       -0.010509417 -0.035729095 -0.004740765 -0.02051662
000250 ff cb 09 bd 55 d5 aa 3a 4a a0 a9 bb b4 78 02 bc
       -0.03364181 0.0013033549 -0.0051765786 -0.007963348
000260 80 81 1e bd e6 4f 05 bd 5f bf 55 3b a3 34 ea bc
       -0.03869772 -0.0325469 0.0032615287 -0.028589552
000270 d1 d7 e2 3c 76 44 41 b9 e6 2d dc bc be 74 ea 3c
       0.0276908 -0.00018431418 -0.026877355 0.02862012
000280 e3 51 d7 bc 6b ce a3 3c c0 cf a0 bc 3b 29 02 bd
       -0.026284164 0.019995889 -0.019630313 -0.0317776
000290 bd 9e 1b bd 6c 9e ad bb 9d 7e ec bb cd 51 07 bc
       -0.03799318 -0.0052984264 -0.007217242 -0.008259249
0002a0 f7 03 04 bd 4f 73 22 3d 9c dd 52 bb 0b 63 80 3c
       -0.032230344 0.039660748 -0.0032175547 0.015672227
0002b0 74 81 d5 bc 09 5d 81 3c 2b 56 17 3d a4 81 39 bc
       -0.026062705 0.015791433 0.03694741 -0.011322413
0002c0 52 9a 28 bc b0 28 92 bc 7f 8c 8a 3c b2 64 28 3d
       -0.010290699 -0.017841667 0.016912697 0.041111656
0002d0 78 d6 cc 3c b9 a5 28 bd 0e 63 98 bc 6e 22 b6 bc
       0.02500461 -0.04117367 -0.01860192 -0.022233214
0002e0 c8 ee 80 3c 23 23 d6 bc 73 e3 1b bd b1 05 1a 3c
       0.01573886 -0.026139801 -0.03805871 0.009400771
0002f0 c4 6e 86 bc f4 49 88 3c eb 46 cd bc 7f 66 1b 3d
       -0.016410239 0.016636826 -0.02505823 0.037939545
000300 ad 0c eb bb 42 e7 ca bc fa a2 10 3d 86 ce 0a 3d
       -0.007173142 -0.024768475 0.035311677 0.033888362
000310 c4 a6 62 ba 76 c4 4f bc ee e7 e8 bc 01 8a 03 bd
       -0.0008646066 -0.012681117 -0.028430905 -0.032114033
000320 38 c4 4d 3c ad a5 11 bd 2e db f8 3c 00 89 c6 bc
       0.012558989 -0.03555839 0.03037795 -0.024235249
000330 ba ca 16 3d c3 f0 97 3c 6f 37 b7 bc 28 f9 17 bd
       0.03681443 0.018547421 -0.0223653 -0.03710285
000340 33 6f a4 3b ae 90 d2 3c ba cb 8f 3c bd 94 09 bd
       0.005018139 0.025703754 0.0175532 -0.033589114
000350 7d 0a 11 bd 08 a4 96 3c 72 c8 28 bd 17 f2 a5 3c
       -0.035410393 0.018388763 -0.041206785 0.020257039
000360 4a 52 b5 3a 5a c8 ca bc 82 f6 03 3c 04 fe a6 3c
       0.0013833728 -0.024753738 0.0080543775 0.020384796
000370 30 96 c2 bc da 8c 1d 3c 40 fc 07 bd b8 a4 e2 bc
       -0.023753256 0.009616101 -0.03319955 -0.027666435
000380 0a 2b 40 bc 2d 96 b4 3a 9d 1c 96 3c 0c d0 46 3c
       -0.011729011 0.0013777666 0.01832419 0.012134563
000390 21 ce 88 3c cd 3c a4 bb 0f af 4f bc cd 4c 25 bd
       0.016699852 -0.005012131 -0.012676015 -0.040356446
0003a0 1c 50 d5 3c ae 5e 55 bc 51 86 02 bd 74 6c ce bc
       0.026039176 -0.013023062 -0.031866375 -0.025198199
0003b0 98 db fa bc 47 d6 b4 bb 17 04 95 bc bc 91 d2 bc
       -0.030622289 -0.005518708 -0.018190427 -0.025704257
0003c0 ea b8 25 bd a4 2f 0a bd 2d 2e 82 bc 6c 02 29 3d
       -0.04045955 -0.03373684 -0.015891159 0.041262075
0003d0 03 db a3 bb 2c e1 19 bd 4e db 6e 3c 12 ba 27 bd
       -0.0050004735 -0.037568256 0.0145786535 -0.040948935
0003e0 13 a8 3a 3c 8b 12 dd b9 26 3d 02 bd e5 39 98 bc
       0.011392611 -0.0004216622 -0.031796597 -0.018582294
0003f0 ac 59 98 bc 9e f0 fc bc f5 11 ca bc 65 c8 c7 3c
       -0.018597446 -0.030876454 -0.024666766 0.024387548

conv3.bias f4 [128]
000000 62 e6 12 3d 61 46 d6 3c 2e e6 11 3c 4e 32 b7 3c
       0.03586424 0.026156606 0.008904977 0.022362854
000010 1b 60 9d 3c 42 74 3e bc c2 90 5b 3c 2a c3 0f bd
       0.019210866 -0.011624398 0.013401212 -0.035098232
000020 1a df d1 bc 82 07 21 bc d6 70 ba bb 96 89 ab bc
       -0.025619078 -0.00982845 -0.0056897206 -0.02093963
000030 76 31 d2 3c 6a 9b 79 bc ee 20 8c 3c 3e 69 e7 3c
       0.02565835 -0.0152348075 0.017105546 0.028248426
000040 58 e8 17 bd 3b 1d 13 3d df 51 2b bc ff c8 f1 bc
       -0.037086815 0.03591655 -0.010456531 -0.029514788
000050 da 6f 2a 3d c1 b4 d2 3c e0 6b f4 bc c6 0c 48 bc
       0.041610576 0.025720956 -0.029836595 -0.012210077
000060 95 29 0e bd 33 80 64 3b 0a fc ea bc 44 df af bc
       -0.034707624 0.0034866452 -0.028684635 -0.021468766
000070 ab e1 1e bd f2 a4 99 bc b4 32 a1 b9 ba 13 de bc
       -0.038789432 -0.01875541 -0.0003074609 -0.027109016
000080 20 10 ec bb 9d 6d 60 bc a5 b8 a1 3c 12 de 0c bb
       -0.0072040707 -0.013698009 0.019741366 -0.002149467
000090 a6 29 13 bc 71 6c d6 bc 18 35 55 bc 1b a2 e8 3c
       -0.008982098 -0.026174756 -0.013013147 0.02839761
0000a0 0b 02 25 bd 72 90 c7 3c a9 1f c2 3b 5b 28 f8 3b
       -0.04028515 0.02436087 0.0059241843 0.00757317
0000b0 a8 64 c0 bb 19 c4 f2 bc 64 61 3b 3c fa c5 d2 3b
       -0.005871374 -0.029634522 0.011436794 0.006432292
0000c0 34 f1 07 bd 64 2e 08 3d ef ac 5b bb 0f 6a a5 3c
       -0.033189014 0.033247367 -0.0033519825 0.020192174
0000d0 25 c4 c5 3c e3 05 ac 3c 8d e1 83 ba b4 f2 81 bb
       0.02414138 0.0209989 -0.0010061726 -0.0039657
0000e0 74 3e de 3c 65 0e ac 3c 77 cb b7 3c 3a 23 22 bd
       0.02712939 0.021002958 0.022435887 -0.039584376
0000f0 34 90 d6 3c 50 12 b5 ba 1a 80 49 3c 10 59 0b 3c
       0.026191808 -0.0013814662 0.012298608 0.008505121
000100 5f 95 b5 bc 1b 2a a5 3c 32 14 c0 3c 2a 61 bf bb
       -0.022165952 0.020161679 0.02344713 -0.0058404403
000110 49 fb 12 bc 9c 3c 1d bd 5e 51 1f bb e7 20 20 3d
       -0.008971044 -0.03838788 -0.0024309973 0.039093878
000120 18 49 06 3d a2 a4 e2 ba a3 2a 14 3c ff 3a ba bc
       0.03278455 -0.0017291496 0.0090433685 -0.02273321
000130 f5 05 cb bb ea f7 05 3d 01 31 94 bc a9 5b 73 3a
       -0.0061957785 0.032707132 -0.018089773 0.0009283373
000140 19 a7 23 3d c9 af f2 3c c3 03 9a bb 60 0e ed 3c
       0.03995428 0.029624837 -0.0047001555 0.028937519
000150 8f fd 70 3c 40 df 71 3c 80 b9 bc 3c 09 a1 18 3d
       0.014708891 0.0147627 0.023037672 0.03726295
000160 a0 e9 d0 3c 05 ea 2c ba dc 3b 27 bd 59 00 cf 3c
       0.025502026 -0.0006596151 -0.04082857 0.02526872
000170 7a c5 2b bc 2a 9d 2b bb ab 23 01 3c f0 7a 1c 3d
       -0.010484094 -0.0026186206 0.007882039 0.03820318
000180 9d 10 07 bd 56 cf de 3b 94 3d 29 3b 34 6f 81 bc
       -0.032974828 0.0067996187 0.0025824057 -0.015800096
000190 cf 32 28 bd 84 f2 08 3d 89 1e d4 bc fa f6 05 3d
       -0.04106408 0.033434406 -0.025893467 0.03270624
0001a0 99 9f e9 bb 3e cb 84 3b 55 07 1a bd 6f da d6 bc
       -0.007129621 0.0040525487 -0.03760465 -0.026227204
0001b0 33 fb 4c bc 8a fd 7f 3b 1a 4f c6 bc ef 0b e4 bc
       -0.012511062 0.0039061033 -0.02420764 -0.027837722
0001c0 c0 d6 89 3b 74 20 7e bb 14 c0 ca 3c 18 16 11 bd
       0.0042065084 -0.0038776668 0.024749793 -0.03542146
0001d0 5f c3 eb 3b 55 60 2a 3d f9 5e 29 3d 14 2e 31 3c
       0.007194921 0.041595776 0.04135034 0.010814209
0001e0 b8 a9 ac bc 33 84 47 bc 1f d9 05 3d d6 9d 02 3d
       -0.021077022 -0.012177515 0.032677766 0.031888805
0001f0 1d 61 12 3d 2a fa d2 3b bb 79 99 3c 66 fd 7c 3c
       0.035737146 0.0064385133 0.018734803 0.015441274

fc.weight f4 [18, 128]
000000 9d 4e 92 bd 8e 43 2a 3d 77 bc 6e 3c fa bb 78 3d
       -0.071439005 0.04156833 0.014571301 0.060726143
000010 ab 1c 5a 3d f8 1c a1 3d e1 1f 51 3b 82 47 fc 3c
       0.053249996 0.078668535 0.003190987 0.030795816
000020 bf 62 7f bd f0 cb 38 3d 7b e7 65 bd 3b 5f 35 bd
       -0.06235003 0.045116365 -0.05612896 -0.044280272
000030 71 fb 30 bd 74 14 27 3d 5e c2 55 3d ab e9 d5 3c
       -0.043208543 0.04079099 0.052187316 0.026112398
000040 2f 37 be 3d 1d 02 2e 3d 20 2e 3f 3d e1 23 b4 3d
       0.09287869 0.042482484 0.046674848 0.08795906
000050 ea 9f 0f bd 44 fe a0 bd f6 0d 4d 3c ba b8 3c bd
       -0.035064615 -0.07860997 0.012515536 -0.046074606
000060 68 a9 8f 3d 4e 7c 8b bd 36 2b 6b 3d 2f fb f9 3c
       0.070147336 -0.068108186 0.057414256 0.030515281
000070 35 06 26 bd e3 f4 22 3d b1 f2 ef 3c 0b b6 42 3d
       -0.040533263 0.039784323 0.029290529 0.04753689
000080 79 e9 00 3c 7e da b9 bb 6f 8c ad 3d 86 08 89 3d
       0.007868164 -0.0056717983 0.08474051 0.06691079
000090 33 30 a3 3d 2f 59 a2 3d ee 12 7a bc 38 10 89 bd
       0.07968178 0.07927167 -0.015263302 -0.066925466
0000a0 35 e4 ff bc 22 c3 09 bc 5a 18 21 3d 47 66 b2 3d
       -0.031236747 -0.00840834 0.039329864 0.08710914
0000b0 fa e4 9a bd 99 83 b9 3c 84 5c 66 3c 24 54 42 3d
       -0.07563205 0.022645758 0.014060143 0.047443524
0000c0 e0 fa 0b bc 11 bd 49 3d d5 89 82 bd ad 26 8c bc
       -0.0085437 0.049252573 -0.063739456 -0.017108286
0000d0 70 11 44 bd cc 21 93 3d 09 21 6e bd c8 cd 9d bd
       -0.047868192 0.071841806 -0.058136974 -0.07705265
0000e0 9c 8a 3d bd c6 bd ab bd 9b fe 71 3d 60 52 34 bd
       -0.046274766 -0.08385806 0.0590807 -0.04402387
0000f0 1b b0 45 3d c1 44 92 bd 06 68 b7 3d 42 4c 86 3c
       0.04826365 -0.0714202 0.08955388 0.016393784
000100 56 0e a1 3c 2f b0 76 3d b8 fd ab bd 0c 1e 8d bd
       0.019660156 0.060226616 -0.083980024 -0.068904966
000110 4d cd b1 bd 63 c2 a3 bb 6d f8 a6 3d a7 2c 2c bd
       -0.08681736 -0.004997538 0.08152852 -0.04203477
000120 6f 8b aa bd 25 32 52 bd 5b 00 ee 3c 2f 60 a7 3d
       -0.08327376 -0.051317353 0.029052904 0.081726424
000130 33 2d a2 bd ed bb 33 bb de fe 7f 3d 11 ee 8b bc
       -0.07918777 -0.0027425245 0.06249892 -0.017081292
000140 e7 5c 70 bc e7 3e 40 3d 4b d3 36 bd e3 6f 08 bd
       -0.014670587 0.04693499 -0.0446351 -0.03330983
000150 16 26 6b 3c c8 ad 30 bb 90 5a 29 3c 02 f7 12 bc
       0.014352342 -0.002695905 0.010336533 -0.008970024
000160 9e 3d 77 3c 1e 5e 8b bc 8a 78 a2 3d 70 9b 0f bc
       0.015090374 -0.017012652 0.07933147 -0.0087650865
000170 e1 30 6e bd 1f 01 30 3d e1 54 c5 3c 7a b3 bb 3d
       -0.058152083 0.04296982 0.024088325 0.09165092
000180 a7 fd 8f 3d 23 02 39 bd cb 53 49 bd fd 2c 0d bd
       0.07030802 -0.045168053 -0.049152177 -0.034466732
000190 a5 f6 08 3d ff 1a 78 3d c1 e7 e2 3c 3d 95 a9 3c
       0.033438344 0.06057262 0.0276984 0.020701045
0001a0 62 a0 49 bd 2c 06 94 bc 2f 24 98 3d 76 75 24 bd
       -0.04922522 -0.01806935 0.074287765 -0.040151082
0001b0 c7 1a 54 bd 29 9f a4 3d 03 2f 51 3c 19 d4 fd 3c
       -0.05178335 0.0803817 0.012767556 0.030984925
0001c0 d3 e6 86 bd 2f 22 37 3d aa 45 3c 3d 3b e3 fc 3c
       -0.06586995 0.044710334 0.045964874 0.03087007
0001d0 ee 8d 38 bd f4 1b 96 3d bf 87 bd 3c ea 3a 9f bd
       -0.04505723 0.073295504 0.023136018 -0.07774909
0001e0 4b f0 9b 3b d6 21 33 bd 5f c4 87 3d 64 a9 b2 3d
       0.0047588698 -0.04373344 0.06629252 0.08723715
0001f0 81 66 bf 3c ad 30 32 3d 9c 18 88 bd 06 01 5e 3d
       0.023364307 0.043503452 -0.06645319 0.054200195
000200 b4 c2 b3 3d 6c bc ad 3b 2c 41 94 3d c8 8a 8d bd
       0.08777371 0.0053020027 0.07238993 -0.06911236
000210 ff 36 a8 3d f7 2a 3c bd 65 2e 01 3d 19 3f 93 bd
       0.08213615 -0.045939412 0.031538386 -0.07189769
000220 97 7f 10 3d 63 15 3b bd bb 4f 8f 3c 51 e2 ac 3d
       0.03527793 -0.045674693 0.017494073 0.08441604
000230 10 32 a4 bd 37 d4 ba bc 95 dc 91 3d be fc fd bc
       -0.08017361 -0.02280627 0.07122151 -0.031004306
000240 a2 ab 83 3d 5b 6e a4 3d 1e db 91 bd 7c 4b 81 bd
       0.06429221 0.08028861 -0.071218714 -0.063132256
000250 39 37 41 bc bb 7f 7b bd cb 86 42 bb 63 53 9d bc
       -0.011792951 -0.06140111 -0.0029682394 -0.019204801
000260 76 df bc 3c 7d f2 3c bd 23 01 8e bd 53 4d a8 3d
       0.023055773 -0.046129692 -0.069338106 0.082178734
000270 54 60 09 3d 51 97 a9 3d 6d e7 82 3d cf fc e8 3c
       0.03353913 0.082808144 0.06391797 0.028440861
000280 ff 16 da bb a6 7d 09 3d dd b0 94 bd ea 2d bb bc
       -0.0066555734 0.033567093 -0.072602965 -0.022849042
000290 fc b9 88 3c da 5b 7a bc 7e 32 4c 3d 52 35 59 bc
       0.016690247 -0.015280688 0.04985284 -0.013257341
0002a0 f1 2d 9e bd 0f b8 23 bd 14 80 95 bb 86 a9 e0 bc
       -0.077236064 -0.039970454 -0.0045623872 -0.027424585
0002b0 1b 29 b3 3c 8a 33 d6 3c 5f 7d 39 3c ff 69 d2 bc
       0.021870187 0.026147623 0.011321395 -0.025685309
0002c0 f8 32 5b bd 79 e7 88 3d c4 b7 96 3d d0 00 87 bd
       -0.053515404 0.06684775 0.07359269 -0.06591952
0002d0 90 d9 8a bc 7c 4d b1 3c e1 cd 9a 3d 27 e2 86 3d
       -0.016949445 0.021643393 0.075587995 0.06586104
0002e0 09 23 f6 bb aa 60 6b bd 95 3e 06 bd 68 65 4d 3d
       -0.0075115007 -0.057465233 -0.032774527 0.050145537
0002f0 48 59 f2 bc b0 59 d5 3b 2f 8d 65 bd e5 1e 99 bd
       -0.029583588 0.0065109357 -0.056042846 -0.07476596
000300 a0 2a 9b 3c 9a 30 b0 3d a0 83 18 3b 26 45 5a ba
       0.018941224 0.0860302 0.0023271814 -0.0008326344
000310 99 85 e2 bc 2f 60 54 3d e0 77 d8 3c 8f e5 23 3d
       -0.027651595 0.05184954 0.026424348 0.040013846
000320 6a f2 c0 bc 58 3b 59 3b 61 f7 83 3d d0 b1 a3 bd
       -0.023553092 0.0033146944 0.06443668 -0.079928994
000330 29 0f 8d bd ac 80 9d 3d 43 f9 9e 3c 04 ce 98 bd
       -0.06887657 0.07690558 0.019405967 -0.07461169
000340 7c 3f 6a 3c 06 23 d3 bc 30 aa b2 bd 50 b6 29 bd
       0.014297362 -0.025773536 -0.08723867 -0.041433632
000350 0b c2 67 3d 88 ed 38 3d a9 07 48 bd 58 d9 9b 3d
       0.05658154 0.045148402 -0.04883543 0.076098144
000360 e4 c1 55 3b 91 a9 b4 bc a3 b9 a0 3d 81 b3 83 3d
       0.0032616789 -0.022053512 0.078479074 0.06430722
000370 ad 9d 7f 3d ed a6 fd 3c 58 ed 16 3d 0e cd a3 bd
       0.06240623 0.030963385 0.036847442 -0.079980955
000380 ee 50 10 3d 16 0d 55 3d 77 4d a7 bd 26 2e 97 3d
       0.03523343 0.052014433 -0.08169072 0.07381849
000390 d9 71 94 bc 90 8e ca 3c a5 ef 8e bd 54 89 0d bb
       -0.018120693 0.024726182 -0.06979302 -0.0021596747
0003a0 a3 9d 92 bd e7 28 83 bd f9 22 0a 3c 4e dc ef ba
       -0.07158973 -0.06404286 0.00843119 -0.0018299909
0003b0 9c 45 a5 3d 64 68 95 3d d7 3b 82 3d 58 fd a2 bb
       0.080699176 0.072953016 0.0635907 -0.0049740486
0003c0 f9 61 ce 3c 87 15 40 3d 46 eb b3 bd 2d dc 9a 3d
       0.025193201 0.04689553 -0.08785109 0.075615264
0003d0 49 ed a4 3d 67 dd 7e 3d 84 a5 ab 3d d4 39 8b 3c
       0.08053071 0.062222864 0.08381179 0.016995348
0003e0 39 bf 98 3d 73 72 21 3d 8f 28 af bd 8b 1a b2 3d
       0.07458348 0.039415788 -0.08552658 0.08696469
0003f0 8b da 00 3c 9b d0 33 3d d6 c1 e6 3c 72 d7 a2 3b
       0.007864605 0.043900114 0.0281686 0.0049695307

fc.bias f4 [18]
000000 28 62 bb 3d e4 6a bd 3c 5a d7 95 bd a2 e9 9f bc
       0.09149581 0.023122258 -0.07316466 -0.019520584
000010 08 3d 50 3d fc 55 75 3d 67 6b 48 3d fd 37 1c 3c
       0.050839454 0.059896454 0.04893055 0.009534833
000020 dd 7e 56 3c 01 46 4f bd a7 97 98 3d 08 b2 0c bd
       0.01309177 -0.05060387 0.074508004 -0.03434947
000030 4d ff 38 bc 91 47 28 3d 05 2a 96 bb 44 45 5e 3c
       -0.011291337 0.041083876 -0.004582646 0.013566319
000040 81 be a2 bd 60 ee 8c bd
       -0.07946492 -0.06881404
